…
2023-09-17 20:20:16: Initializing sklearn.model_selection started.

2023-09-17 20:20:18: Initializing sklearn.model_selection started.

2023-09-17 20:20:18: Initializing tensorflow started.

2023-09-17 20:20:18: Initializing tensorflow finished.

2023-09-17 20:20:18: Program started.

2023-09-17 20:20:18: Making dataset started.

2023-09-17 20:20:43: Building model started.
Model: "sequential"
_________________________________________________________________
 Layer (type)                Output Shape              Param #   
=================================================================
 conv2d (Conv2D)             (None, 57, 60, 64)        5248      
                                                                 
 conv2d_1 (Conv2D)           (None, 57, 60, 32)        100384    
                                                                 
 max_pooling2d (MaxPooling2  (None, 57, 60, 32)        0         
 D)                                                              
                                                                 
 conv2d_2 (Conv2D)           (None, 57, 60, 16)        12816     
                                                                 
 max_pooling2d_1 (MaxPoolin  (None, 57, 60, 16)        0         
 g2D)                                                            
                                                                 
 conv2d_3 (Conv2D)           (None, 57, 60, 8)         1160      
                                                                 
 dropout (Dropout)           (None, 57, 60, 8)         0         
                                                                 
 conv2d_transpose (Conv2DTr  (None, 57, 60, 16)        1168      
 anspose)                                                        
                                                                 
 conv2d_transpose_1 (Conv2D  (None, 57, 60, 32)        25120     
 Transpose)                                                      
                                                                 
 conv2d_transpose_2 (Conv2D  (None, 57, 60, 64)        165952    
 Transpose)                                                      
                                                                 
 conv2d_transpose_3 (Conv2D  (None, 57, 60, 1)         577       
 Transpose)                                                      
                                                                 
=================================================================
Total params: 312425 (1.19 MB)
Trainable params: 312425 (1.19 MB)
Non-trainable params: 0 (0.00 Byte)
_________________________________________________________________
2023-09-17 20:20:44.700808: W tensorflow/core/grappler/optimizers/data/auto_shard.cc:786] AUTO sharding policy will apply DATA sharding policy as it failed to apply FILE sharding policy because of the following reason: Found an unshardable source dataset: name: "TensorSliceDataset/_2"
…
